Coral_mini_dev/model_count_insects_final_2_quant.tflite (tflite, 492784 bytes, 7 tensors)

model_count_insects_final_2/conv2d/Conv2D i1 [16, 5, 5, 1]
0	0xee	-18
1	0xb5	-75
2	0xc2	-62
3	0xe1	-31
4	0xa8	-88
5	0xa0	-96
6	0xa8	-88
7	0xad	-83
8	0x0b	11
9	0xda	-38
10	0xc0	-64
11	0xd0	-48
12	0xbe	-66
13	0x8e	-114
14	0x81	-127
15	0xe4	-28
16	0xe1	-31
17	0xe8	-24
18	0xde	-34
19	0xea	-22
20	0xbe	-66
21	0xf0	-16
22	0x27	39
23	0xbb	-69
24	0xc4	-60
25	0xfa	-6
26	0xdb	-37
27	0xd7	-41
28	0xfb	-5
29	0xda	-38
30	0xeb	-21
31	0x0b	11
32	0xca	-54
33	0x39	57
34	0xd8	-40
35	0xb5	-75
36	0x04	4
37	0xec	-20
38	0xe9	-23
39	0xe7	-25
40	0xf9	-7
41	0x18	24
42	0xdf	-33
43	0xf3	-13
44	0xc0	-64
45	0xb1	-79
46	0xdc	-36
47	0xec	-20
48	0x9b	-101
49	0x81	-127
50	0xdd	-35
51	0x19	25
52	0x98	-104
53	0x39	57
54	0xec	-20
55	0xf4	-12
56	0xd1	-47
57	0xeb	-21
58	0x0d	13
59	0xf1	-15
60	0x1f	31
61	0xb9	-71
62	0xb9	-71
63	0xf9	-7
64	0xc1	-63
65	0x81	-127
66	0xf3	-13
67	0x08	8
68	0xc7	-57
69	0xdf	-33
70	0xf5	-11
71	0xd7	-41
72	0x03	3
73	0xf1	-15
74	0x0d	13
75	0xd8	-40
76	0xee	-18
77	0x81	-127
78	0xbf	-65
79	0xcd	-51
80	0xd2	-46
81	0x09	9
82	0x95	-107
83	0xc2	-62
84	0xa6	-90
85	0xc4	-60
86	0x1b	27
87	0xc4	-60
88	0xbc	-68
89	0x98	-104
90	0xde	-34
91	0xff	-1
92	0xc3	-61
93	0x01	1
94	0xa4	-92
95	0xbc	-68
96	0xd4	-44
97	0xfc	-4
98	0xff	-1
99	0xfe	-2
100	0xd2	-46
101	0xdc	-36
102	0xb9	-71
103	0xdb	-37
104	0xea	-22
105	0xcb	-53
106	0xcd	-51
107	0xc0	-64
108	0xe8	-24
109	0xf7	-9
110	0x81	-127
111	0x9f	-97
112	0x8a	-118
113	0x99	-103
114	0xa6	-90
115	0xae	-82
116	0xab	-85
117	0x9d	-99
118	0xa7	-89
119	0x97	-105
120	0xb7	-73
121	0xb2	-78
122	0x97	-105
123	0xa9	-87
124	0xa5	-91
125	0xb2	-78
126	0xbf	-65
127	0x85	-123
128	0xaa	-86
129	0xc7	-57
130	0xaf	-81
131	0xb0	-80
132	0x82	-126
133	0xaa	-86
134	0xc9	-55
135	0xb6	-74
136	0xc1	-63
137	0x81	-127
138	0xb3	-77
139	0xdf	-33
140	0xc4	-60
141	0xc6	-58
142	0x9a	-102
143	0xb0	-80
144	0xd3	-45
145	0xce	-50
146	0xd8	-40
147	0xbd	-67
148	0xc0	-64
149	0xc7	-57
150	0xab	-85
151	0x1f	31
152	0xe8	-24
153	0x1e	30
154	0xd6	-42
155	0xbb	-69
156	0xdb	-37
157	0xb6	-74
158	0xe0	-32
159	0xde	-34
160	0x9e	-98
161	0xca	-54
162	0x95	-107
163	0x08	8
164	0xcd	-51
165	0xc1	-63
166	0xb0	-80
167	0x90	-112
168	0xaa	-86
169	0xf0	-16
170	0xcd	-51
171	0x8f	-113
172	0x99	-103
173	0x82	-126
174	0x81	-127
175	0xb9	-71
176	0xac	-84
177	0xf6	-10
178	0xf8	-8
179	0x90	-112
180	0xfb	-5
181	0x3b	59
182	0xeb	-21
183	0xd1	-47
184	0xb7	-73
185	0xf5	-11
186	0xbd	-67
187	0xf4	-12
188	0xfc	-4
189	0xc6	-58
190	0x17	23
191	0xb4	-76
192	0xd7	-41
193	0xbf	-65
194	0xfd	-3
195	0xee	-18
196	0x9f	-97
197	0xc8	-56
198	0x9d	-99
199	0x81	-127
200	0xdf	-33
201	0xf1	-15
202	0xda	-38
203	0x04	4
204	0xea	-22
205	0xe9	-23
206	0x06	6
207	0xd2	-46
208	0x0d	13
209	0x19	25
210	0x94	-108
211	0xac	-84
212	0x81	-127
213	0xbd	-67
214	0xbb	-69
215	0xee	-18
216	0xff	-1
217	0xdc	-36
218	0x0b	11
219	0x05	5
220	0xdc	-36
221	0xfd	-3
222	0xcb	-53
223	0x01	1
224	0xf9	-7
225	0xc6	-58
226	0x03	3
227	0x04	4
228	0xf0	-16
229	0xd7	-41
230	0xec	-20
231	0xeb	-21
232	0xf2	-14
233	0x27	39
234	0xe4	-28
235	0xe0	-32
236	0x81	-127
237	0x01	1
238	0xcd	-51
239	0xbc	-68
240	0x8f	-113
241	0xac	-84
242	0xc1	-63
243	0xda	-38
244	0xc0	-64
245	0xe4	-28
246	0xb2	-78
247	0xe6	-26
248	0xa0	-96
249	0xbb	-69
250	0xcf	-49
251	0xbe	-66
252	0xe0	-32
253	0xc4	-60
254	0xf7	-9
255	0x96	-106

model_count_insects_final_2/conv2d_1/Conv2D i1 [16, 5, 5, 16]
0	0xd2	-46
1	0x18	24
2	0x1b	27
3	0xe9	-23
4	0xe3	-29
5	0xeb	-21
6	0xfe	-2
7	0x13	19
8	0x1a	26
9	0xf5	-11
10	0xe1	-31
11	0xba	-70
12	0x0e	14
13	0xee	-18
14	0x16	22
15	0xfd	-3
16	0xc7	-57
17	0xf5	-11
18	0x22	34
19	0x35	53
20	0xfa	-6
21	0xa6	-90
22	0x48	72
23	0x10	16
24	0xe7	-25
25	0xba	-70
26	0xd0	-48
27	0x1e	30
28	0x0a	10
29	0x04	4
30	0xf3	-13
31	0xab	-85
32	0xe5	-27
33	0xd6	-42
34	0xe4	-28
35	0x28	40
36	0xd7	-41
37	0xdb	-37
38	0xe3	-29
39	0x25	37
40	0xb7	-73
41	0x9f	-97
42	0xd3	-45
43	0xce	-50
44	0x02	2
45	0xd8	-40
46	0xd3	-45
47	0xf0	-16
48	0xdd	-35
49	0xf5	-11
50	0xfc	-4
51	0x0f	15
52	0x16	22
53	0xc8	-56
54	0xf7	-9
55	0xd5	-43
56	0xc9	-55
57	0xd6	-42
58	0x9e	-98
59	0x0b	11
60	0x23	35
61	0x00	0
62	0x1c	28
63	0x04	4
64	0xcf	-49
65	0x1d	29
66	0xbe	-66
67	0x02	2
68	0x83	-125
69	0xc7	-57
70	0xa4	-92
71	0xff	-1
72	0x99	-103
73	0xe8	-24
74	0xef	-17
75	0x1b	27
76	0x04	4
77	0x86	-122
78	0x5f	95
79	0x0f	15
80	0x18	24
81	0xf0	-16
82	0xd2	-46
83	0xd5	-43
84	0x29	41
85	0x98	-104
86	0x15	21
87	0xab	-85
88	0xe4	-28
89	0x1f	31
90	0xc8	-56
91	0xd2	-46
92	0xf5	-11
93	0xe2	-30
94	0x01	1
95	0xe6	-26
96	0xed	-19
97	0x25	37
98	0xef	-17
99	0xda	-38
100	0xb9	-71
101	0x22	34
102	0x31	49
103	0x00	0
104	0xfc	-4
105	0x34	52
106	0x03	3
107	0xd9	-39
108	0xdf	-33
109	0xeb	-21
110	0xd6	-42
111	0xb0	-80
112	0xe3	-29
113	0xfc	-4
114	0xd9	-39
115	0x02	2
116	0xdf	-33
117	0x05	5
118	0xfe	-2
119	0xf0	-16
120	0xe7	-25
121	0xce	-50
122	0xe1	-31
123	0x31	49
124	0xdc	-36
125	0xd9	-39
126	0x28	40
127	0xe1	-31
128	0xe3	-29
129	0x05	5
130	0xcc	-52
131	0xf3	-13
132	0xd2	-46
133	0xbb	-69
134	0xb6	-74
135	0xea	-22
136	0xcb	-53
137	0xfe	-2
138	0x41	65
139	0xe4	-28
140	0xe4	-28
141	0x34	52
142	0xc3	-61
143	0xeb	-21
144	0xf5	-11
145	0xd5	-43
146	0xdd	-35
147	0xd4	-44
148	0x9c	-100
149	0x43	67
150	0xbb	-69
151	0xb9	-71
152	0xc9	-55
153	0x0b	11
154	0x15	21
155	0xd7	-41
156	0x3a	58
157	0xe0	-32
158	0xfb	-5
159	0xc7	-57
160	0xf8	-8
161	0x1b	27
162	0xe9	-23
163	0x14	20
164	0x2e	46
165	0x02	2
166	0x26	38
167	0x20	32
168	0xba	-70
169	0xf9	-7
170	0x81	-127
171	0xe6	-26
172	0xf3	-13
173	0xf5	-11
174	0xe6	-26
175	0x14	20
176	0xd7	-41
177	0x18	24
178	0xf5	-11
179	0xf0	-16
180	0xda	-38
181	0x09	9
182	0x11	17
183	0x3c	60
184	0xe7	-25
185	0xe3	-29
186	0xe7	-25
187	0xc3	-61
188	0x2d	45
189	0xe3	-29
190	0x14	20
191	0x21	33
192	0xb7	-73
193	0x2b	43
194	0xca	-54
195	0xdc	-36
196	0x31	49
197	0xde	-34
198	0xd9	-39
199	0x01	1
200	0xab	-85
201	0xba	-70
202	0xe4	-28
203	0xdc	-36
204	0x5a	90
205	0xf5	-11
206	0x07	7
207	0x17	23
208	0xf9	-7
209	0x00	0
210	0x14	20
211	0xdb	-37
212	0x0e	14
213	0xfa	-6
214	0x05	5
215	0xcb	-53
216	0xad	-83
217	0x06	6
218	0xf7	-9
219	0xec	-20
220	0xfd	-3
221	0xf9	-7
222	0xb3	-77
223	0xe3	-29
224	0x06	6
225	0x20	32
226	0xd4	-44
227	0x0c	12
228	0x15	21
229	0xd5	-43
230	0xf9	-7
231	0xff	-1
232	0xd9	-39
233	0xe9	-23
234	0xe6	-26
235	0x18	24
236	0x37	55
237	0x09	9
238	0xc0	-64
239	0xfb	-5
240	0x09	9
241	0xef	-17
242	0xff	-1
243	0xc4	-60
244	0xed	-19
245	0xe1	-31
246	0xe3	-29
247	0x0e	14
248	0xd6	-42
249	0xec	-20
250	0xfb	-5
251	0x9b	-101
252	0xe5	-27
253	0xe5	-27
254	0xf9	-7
255	0x1f	31

model_count_insects_final_2/conv2d_2/Conv2D i1 [32, 3, 3, 16]
0	0xfb	-5
1	0xb7	-73
2	0xc0	-64
3	0xd1	-47
4	0xb3	-77
5	0x9d	-99
6	0xf3	-13
7	0xa9	-87
8	0x24	36
9	0xb3	-77
10	0xcf	-49
11	0x0c	12
12	0xf6	-10
13	0x02	2
14	0x0f	15
15	0x8f	-113
16	0x09	9
17	0x81	-127
18	0xa8	-88
19	0xb4	-76
20	0xcf	-49
21	0xb3	-77
22	0x15	21
23	0xa6	-90
24	0x06	6
25	0xbd	-67
26	0xb1	-79
27	0x0a	10
28	0x00	0
29	0xfb	-5
30	0xe0	-32
31	0xab	-85
32	0x1d	29
33	0xc5	-59
34	0x96	-106
35	0xc1	-63
36	0xbb	-69
37	0xa6	-90
38	0x19	25
39	0xbd	-67
40	0xe1	-31
41	0xd0	-48
42	0x9b	-101
43	0x11	17
44	0x1b	27
45	0x05	5
46	0xe0	-32
47	0x98	-104
48	0xf1	-15
49	0x8d	-115
50	0xa8	-88
51	0xa1	-95
52	0xb8	-72
53	0xaa	-86
54	0xfe	-2
55	0xab	-85
56	0xf1	-15
57	0xa8	-88
58	0xbf	-65
59	0xf4	-12
60	0xea	-22
61	0x04	4
62	0x10	16
63	0xb5	-75
64	0xe9	-23
65	0xbb	-69
66	0xe3	-29
67	0xcc	-52
68	0x85	-123
69	0xe2	-30
70	0x06	6
71	0x88	-120
72	0xe4	-28
73	0x9f	-97
74	0xa5	-91
75	0x09	9
76	0x01	1
77	0x1c	28
78	0xfa	-6
79	0x98	-104
80	0xfe	-2
81	0xc1	-63
82	0x9f	-97
83	0xe1	-31
84	0xb6	-74
85	0xe4	-28
86	0xe6	-26
87	0xcf	-49
88	0xf8	-8
89	0x93	-109
90	0xa3	-93
91	0x0e	14
92	0x0f	15
93	0x0c	12
94	0x03	3
95	0xab	-85
96	0xf9	-7
97	0xaa	-86
98	0xba	-70
99	0xd7	-41
100	0x99	-103
101	0xe7	-25
102	0x12	18
103	0xa3	-93
104	0xfd	-3
105	0x9e	-98
106	0xb7	-73
107	0x06	6
108	0xee	-18
109	0x01	1
110	0x17	23
111	0xd0	-48
112	0x09	9
113	0xb2	-78
114	0xdc	-36
115	0xd0	-48
116	0xb8	-72
117	0xc7	-57
118	0xe4	-28
119	0xbc	-68
120	0xfb	-5
121	0xa2	-94
122	0xa9	-87
123	0xee	-18
124	0xed	-19
125	0xfb	-5
126	0xf2	-14
127	0xeb	-21
128	0xe9	-23
129	0xce	-50
130	0x9b	-101
131	0xd6	-42
132	0xd6	-42
133	0xb6	-74
134	0xf2	-14
135	0xdd	-35
136	0xfa	-6
137	0xb0	-80
138	0xbf	-65
139	0xe2	-30
140	0x34	52
141	0xef	-17
142	0x04	4
143	0xcb	-53
144	0x01	1
145	0xc7	-57
146	0x12	18
147	0xdb	-37
148	0xcd	-51
149	0xf0	-16
150	0x02	2
151	0xf8	-8
152	0x00	0
153	0x92	-110
154	0x30	48
155	0x03	3
156	0x02	2
157	0x01	1
158	0x03	3
159	0xe6	-26
160	0x01	1
161	0xec	-20
162	0xb6	-74
163	0xe4	-28
164	0xd3	-45
165	0x13	19
166	0x00	0
167	0x14	20
168	0xff	-1
169	0x3d	61
170	0x18	24
171	0x02	2
172	0x01	1
173	0x00	0
174	0x03	3
175	0xe5	-27
176	0x01	1
177	0xd8	-40
178	0xd6	-42
179	0x97	-105
180	0x01	1
181	0xd2	-46
182	0xff	-1
183	0xb3	-77
184	0x00	0
185	0xa8	-88
186	0xb3	-77
187	0x00	0
188	0x00	0
189	0x00	0
190	0x03	3
191	0xcb	-53
192	0x01	1
193	0xf5	-11
194	0x0b	11
195	0x0c	12
196	0xed	-19
197	0x0f	15
198	0xff	-1
199	0x1e	30
200	0x00	0
201	0xc2	-62
202	0x12	18
203	0x00	0
204	0x01	1
205	0xff	-1
206	0x01	1
207	0x11	17
208	0x01	1
209	0xe6	-26
210	0x85	-123
211	0xe4	-28
212	0x9f	-97
213	0x17	23
214	0xfd	-3
215	0x16	22
216	0x00	0
217	0x14	20
218	0xda	-38
219	0xff	-1
220	0xff	-1
221	0xff	-1
222	0x01	1
223	0x02	2
224	0x00	0
225	0xd5	-43
226	0x88	-120
227	0xd8	-40
228	0x12	18
229	0xf1	-15
230	0x00	0
231	0x29	41
232	0xfd	-3
233	0x1e	30
234	0x9c	-100
235	0x04	4
236	0x00	0
237	0x01	1
238	0xff	-1
239	0xeb	-21
240	0x03	3
241	0x13	19
242	0x35	53
243	0x0f	15
244	0xf1	-15
245	0x11	17
246	0x00	0
247	0xf1	-15
248	0x00	0
249	0xdf	-33
250	0xfc	-4
251	0xff	-1
252	0x01	1
253	0x00	0
254	0x00	0
255	0x0d	13

model_count_insects_final_2/conv2d_3/Conv2D i1 [32, 3, 3, 32]
0	0x06	6
1	0x99	-103
2	0xfa	-6
3	0x11	17
4	0x0c	12
5	0x0b	11
6	0x00	0
7	0xfa	-6
8	0x00	0
9	0xcb	-53
10	0x00	0
11	0xe3	-29
12	0x01	1
13	0xf8	-8
14	0xfb	-5
15	0xdb	-37
16	0x26	38
17	0xfe	-2
18	0xfb	-5
19	0x04	4
20	0x00	0
21	0x1e	30
22	0xbb	-69
23	0x00	0
24	0x35	53
25	0xfe	-2
26	0xee	-18
27	0xff	-1
28	0xf3	-13
29	0x03	3
30	0x01	1
31	0x03	3
32	0x02	2
33	0xf2	-14
34	0x00	0
35	0x2c	44
36	0x27	39
37	0x19	25
38	0xfe	-2
39	0x2e	46
40	0xfe	-2
41	0x1a	26
42	0x02	2
43	0xef	-17
44	0x04	4
45	0xe3	-29
46	0xfd	-3
47	0x1e	30
48	0x31	49
49	0xff	-1
50	0x00	0
51	0x02	2
52	0x03	3
53	0x08	8
54	0xfc	-4
55	0xff	-1
56	0x65	101
57	0xcc	-52
58	0x33	51
59	0x00	0
60	0xbd	-67
61	0x0b	11
62	0xfe	-2
63	0x23	35
64	0xfb	-5
65	0x05	5
66	0xf7	-9
67	0x14	20
68	0x26	38
69	0xf5	-11
70	0xfe	-2
71	0x0d	13
72	0x03	3
73	0x15	21
74	0x00	0
75	0x06	6
76	0xfc	-4
77	0x0f	15
78	0x00	0
79	0xf3	-13
80	0x26	38
81	0x00	0
82	0xff	-1
83	0x02	2
84	0x03	3
85	0xe3	-29
86	0x10	16
87	0xfe	-2
88	0x27	39
89	0xe5	-27
90	0x27	39
91	0xfd	-3
92	0xeb	-21
93	0xf0	-16
94	0x00	0
95	0x12	18
96	0x02	2
97	0xfa	-6
98	0x04	4
99	0xe1	-31
100	0xce	-50
101	0xca	-54
102	0xfe	-2
103	0x9a	-102
104	0x01	1
105	0x06	6
106	0xfe	-2
107	0x40	64
108	0xfa	-6
109	0xea	-22
110	0xfd	-3
111	0xf1	-15
112	0xf4	-12
113	0xfb	-5
114	0xfc	-4
115	0x04	4
116	0xf9	-7
117	0x0d	13
118	0xe9	-23
119	0x01	1
120	0x28	40
121	0x10	16
122	0xe4	-28
123	0xfb	-5
124	0x0d	13
125	0xf3	-13
126	0x00	0
127	0xe1	-31
128	0x06	6
129	0x03	3
130	0x01	1
131	0xf7	-9
132	0xf6	-10
133	0x0a	10
134	0x02	2
135	0xd2	-46
136	0x03	3
137	0xe0	-32
138	0x00	0
139	0x02	2
140	0xff	-1
141	0x9f	-97
142	0xfd	-3
143	0x0b	11
144	0xf8	-8
145	0xfc	-4
146	0xfe	-2
147	0x03	3
148	0x02	2
149	0x14	20
150	0xdc	-36
151	0x00	0
152	0x11	17
153	0x2c	44
154	0xe4	-28
155	0xfb	-5
156	0xec	-20
157	0x12	18
158	0x00	0
159	0xce	-50
160	0xfd	-3
161	0xd1	-47
162	0xff	-1
163	0x25	37
164	0x1c	28
165	0x16	22
166	0x00	0
167	0x14	20
168	0xf8	-8
169	0x07	7
170	0xfd	-3
171	0x0a	10
172	0xfa	-6
173	0xf9	-7
174	0x01	1
175	0x3d	61
176	0x2b	43
177	0x03	3
178	0x00	0
179	0x05	5
180	0x00	0
181	0x0b	11
182	0x19	25
183	0x03	3
184	0xbd	-67
185	0xac	-84
186	0x23	35
187	0xfc	-4
188	0xd4	-44
189	0x06	6
190	0xfc	-4
191	0x0c	12
192	0x04	4
193	0x03	3
194	0x06	6
195	0x62	98
196	0xbd	-67
197	0x81	-127
198	0x04	4
199	0xca	-54
200	0xfb	-5
201	0xfb	-5
202	0x00	0
203	0x1a	26
204	0xfc	-4
205	0xdc	-36
206	0x02	2
207	0x23	35
208	0xfd	-3
209	0x00	0
210	0x01	1
211	0x03	3
212	0xff	-1
213	0xe4	-28
214	0x12	18
215	0x02	2
216	0xec	-20
217	0x01	1
218	0xee	-18
219	0x01	1
220	0xff	-1
221	0xf6	-10
222	0xfe	-2
223	0x0a	10
224	0x05	5
225	0xf9	-7
226	0x00	0
227	0xc8	-56
228	0xe1	-31
229	0xea	-22
230	0x01	1
231	0x10	16
232	0x03	3
233	0x03	3
234	0x01	1
235	0xa0	-96
236	0xff	-1
237	0xe7	-25
238	0x03	3
239	0xca	-54
240	0xdb	-37
241	0x02	2
242	0x04	4
243	0x03	3
244	0x00	0
245	0x1b	27
246	0xdf	-33
247	0x02	2
248	0xdf	-33
249	0x10	16
250	0xec	-20
251	0xff	-1
252	0x10	16
253	0x17	23
254	0xfd	-3
255	0x12	18

model_count_insects_final_2/FC_1/MatMul i1 [64, 7200] scale=0.026870748 zero_point=0
0	0xfd	-0.08061224
1	0x00	0.0
2	0x01	0.026870748
3	0xfb	-0.13435374
4	0xfb	-0.13435374
5	0xf7	-0.24183673
6	0x01	0.026870748
7	0x01	0.026870748
8	0xff	-0.026870748
9	0x01	0.026870748
10	0xff	-0.026870748
11	0xfa	-0.16122448
12	0xf2	-0.37619048
13	0x00	0.0
14	0xeb	-0.5642857
15	0x0f	0.4030612
16	0x01	0.026870748
17	0x01	0.026870748
18	0x00	0.0
19	0xfe	-0.053741496
20	0x11	0.45680273
21	0xff	-0.026870748
22	0x01	0.026870748
23	0x00	0.0
24	0xfb	-0.13435374
25	0x01	0.026870748
26	0xff	-0.026870748
27	0x00	0.0
28	0xee	-0.48367345
29	0x02	0.053741496
30	0xff	-0.026870748
31	0x00	0.0
32	0xfd	-0.08061224
33	0xff	-0.026870748
34	0x00	0.0
35	0xfb	-0.13435374
36	0xf4	-0.32244897
37	0x04	0.10748299
38	0x00	0.0
39	0x00	0.0
40	0x00	0.0
41	0x02	0.053741496
42	0xff	-0.026870748
43	0xff	-0.026870748
44	0x08	0.21496598
45	0x01	0.026870748
46	0xf8	-0.21496598
47	0x0a	0.26870748
48	0xff	-0.026870748
49	0x06	0.16122448
50	0xfe	-0.053741496
51	0xff	-0.026870748
52	0x0c	0.32244897
53	0x00	0.0
54	0x00	0.0
55	0xff	-0.026870748
56	0xff	-0.026870748
57	0x01	0.026870748
58	0x01	0.026870748
59	0x01	0.026870748
60	0x06	0.16122448
61	0x00	0.0
62	0x04	0.10748299
63	0x00	0.0
64	0x05	0.13435374
65	0x00	0.0
66	0xff	-0.026870748
67	0x00	0.0
68	0xf8	-0.21496598
69	0x01	0.026870748
70	0x00	0.0
71	0x01	0.026870748
72	0x01	0.026870748
73	0xfe	-0.053741496
74	0xff	-0.026870748
75	0x08	0.21496598
76	0x03	0.08061224
77	0xff	-0.026870748
78	0xf9	-0.18809524
79	0x0c	0.32244897
80	0x06	0.16122448
81	0x02	0.053741496
82	0xfe	-0.053741496
83	0x02	0.053741496
84	0xfc	-0.10748299
85	0xfe	-0.053741496
86	0xff	-0.026870748
87	0xff	-0.026870748
88	0xf8	-0.21496598
89	0x00	0.0
90	0x00	0.0
91	0x00	0.0
92	0x04	0.10748299
93	0x00	0.0
94	0xfe	-0.053741496
95	0x00	0.0
96	0x00	0.0
97	0xff	-0.026870748
98	0x01	0.026870748
99	0xf8	-0.21496598
100	0x00	0.0
101	0x00	0.0
102	0x00	0.0
103	0xff	-0.026870748
104	0x00	0.0
105	0xff	-0.026870748
106	0xff	-0.026870748
107	0x00	0.0
108	0xfd	-0.08061224
109	0x01	0.026870748
110	0xfa	-0.16122448
111	0x09	0.24183673
112	0x03	0.08061224
113	0x07	0.18809524
114	0xfe	-0.053741496
115	0x05	0.13435374
116	0x06	0.16122448
117	0xfe	-0.053741496
118	0x00	0.0
119	0xff	-0.026870748
120	0x01	0.026870748
121	0x00	0.0
122	0xff	-0.026870748
123	0x00	0.0
124	0x06	0.16122448
125	0x01	0.026870748
126	0xf4	-0.32244897
127	0x00	0.0
128	0x08	0.21496598
129	0x00	0.0
130	0x00	0.0
131	0x02	0.053741496
132	0x00	0.0
133	0x04	0.10748299
134	0x00	0.0
135	0xff	-0.026870748
136	0xff	-0.026870748
137	0xff	-0.026870748
138	0xff	-0.026870748
139	0x01	0.026870748
140	0xff	-0.026870748
141	0x00	0.0
142	0xf5	-0.29557824
143	0x06	0.16122448
144	0x07	0.18809524
145	0x10	0.42993197
146	0xff	-0.026870748
147	0xfa	-0.16122448
148	0x0c	0.32244897
149	0xff	-0.026870748
150	0x00	0.0
151	0xff	-0.026870748
152	0x04	0.10748299
153	0xff	-0.026870748
154	0x00	0.0
155	0x00	0.0
156	0x04	0.10748299
157	0x00	0.0
158	0xfb	-0.13435374
159	0x01	0.026870748
160	0x02	0.053741496
161	0x01	0.026870748
162	0x00	0.0
163	0x06	0.16122448
164	0xff	-0.026870748
165	0x03	0.08061224
166	0x00	0.0
167	0x01	0.026870748
168	0x00	0.0
169	0x00	0.0
170	0xff	-0.026870748
171	0xf8	-0.21496598
172	0xf4	-0.32244897
173	0x00	0.0
174	0xf6	-0.26870748
175	0x06	0.16122448
176	0x07	0.18809524
177	0x0b	0.29557824
178	0xfe	-0.053741496
179	0xff	-0.026870748
180	0x08	0.21496598
181	0xff	-0.026870748
182	0xff	-0.026870748
183	0x00	0.0
184	0x04	0.10748299
185	0xff	-0.026870748
186	0x00	0.0
187	0xff	-0.026870748
188	0xff	-0.026870748
189	0x00	0.0
190	0xfd	-0.08061224
191	0xff	-0.026870748
192	0x04	0.10748299
193	0xff	-0.026870748
194	0x01	0.026870748
195	0x07	0.18809524
196	0x02	0.053741496
197	0xfd	-0.08061224
198	0x00	0.0
199	0x00	0.0
200	0xff	-0.026870748
201	0x00	0.0
202	0xfe	-0.053741496
203	0xfc	-0.10748299
204	0x01	0.026870748
205	0x00	0.0
206	0xfb	-0.13435374
207	0x09	0.24183673
208	0x07	0.18809524
209	0x0f	0.4030612
210	0xff	-0.026870748
211	0xfe	-0.053741496
212	0x00	0.0
213	0xfe	-0.053741496
214	0x00	0.0
215	0x01	0.026870748
216	0x09	0.24183673
217	0x00	0.0
218	0x00	0.0
219	0x00	0.0
220	0x00	0.0
221	0x02	0.053741496
222	0xfb	-0.13435374
223	0x00	0.0
224	0xfc	-0.10748299
225	0x01	0.026870748
226	0x01	0.026870748
227	0x0b	0.29557824
228	0x04	0.10748299
229	0x01	0.026870748
230	0x00	0.0
231	0x00	0.0
232	0x01	0.026870748
233	0x00	0.0
234	0xfe	-0.053741496
235	0x03	0.08061224
236	0xf6	-0.26870748
237	0xff	-0.026870748
238	0xf7	-0.24183673
239	0x05	0.13435374
240	0x02	0.053741496
241	0x0f	0.4030612
242	0xff	-0.026870748
243	0x04	0.10748299
244	0x02	0.053741496
245	0xff	-0.026870748
246	0x00	0.0
247	0xff	-0.026870748
248	0x0e	0.37619048
249	0x00	0.0
250	0x01	0.026870748
251	0x00	0.0
252	0x08	0.21496598
253	0x00	0.0
254	0xf3	-0.34931973
255	0x00	0.0

model_count_insects_final_2/FC_2/MatMul i1 [32, 64] scale=0.02258089 zero_point=0
0	0x04	0.09032356
1	0xfc	-0.09032356
2	0xf9	-0.15806623
3	0x02	0.04516178
4	0xff	-0.02258089
5	0x05	0.11290445
6	0xf8	-0.18064712
7	0x04	0.09032356
8	0x03	0.06774267
9	0xf4	-0.27097067
10	0x07	0.15806623
11	0x0b	0.2483898
12	0x06	0.13548534
13	0xf5	-0.2483898
14	0x0a	0.2258089
15	0xfc	-0.09032356
16	0x01	0.02258089
17	0xfd	-0.06774267
18	0xf8	-0.18064712
19	0x09	0.20322801
20	0x07	0.15806623
21	0x02	0.04516178
22	0xfc	-0.09032356
23	0x00	0.0
24	0x02	0.04516178
25	0x04	0.09032356
26	0x04	0.09032356
27	0x04	0.09032356
28	0x09	0.20322801
29	0x08	0.18064712
30	0x01	0.02258089
31	0xfe	-0.04516178
32	0x07	0.15806623
33	0x0b	0.2483898
34	0x1a	0.5871031
35	0x06	0.13548534
36	0x01	0.02258089
37	0x04	0.09032356
38	0xf9	-0.15806623
39	0x00	0.0
40	0xf6	-0.2258089
41	0xf8	-0.18064712
42	0x08	0.18064712
43	0x0a	0.2258089
44	0x00	0.0
45	0xfe	-0.04516178
46	0x05	0.11290445
47	0x00	0.0
48	0x04	0.09032356
49	0x08	0.18064712
50	0x07	0.15806623
51	0x09	0.20322801
52	0xf4	-0.27097067
53	0x05	0.11290445
54	0xfe	-0.04516178
55	0xfe	-0.04516178
56	0xf8	-0.18064712
57	0x01	0.02258089
58	0x06	0.13548534
59	0x03	0.06774267
60	0x01	0.02258089
61	0xfa	-0.13548534
62	0xfe	-0.04516178
63	0xf4	-0.27097067
64	0xf9	-0.15806623
65	0xff	-0.02258089
66	0x04	0.09032356
67	0xf5	-0.2483898
68	0x00	0.0
69	0xfe	-0.04516178
70	0x02	0.04516178
71	0x01	0.02258089
72	0xff	-0.02258089
73	0xfb	-0.11290445
74	0x08	0.18064712
75	0xf7	-0.20322801
76	0xfc	-0.09032356
77	0xf5	-0.2483898
78	0xf6	-0.2258089
79	0xf8	-0.18064712
80	0x00	0.0
81	0x12	0.40645602
82	0xfa	-0.13548534
83	0xfb	-0.11290445
84	0xf8	-0.18064712
85	0x04	0.09032356
86	0xf5	-0.2483898
87	0xf5	-0.2483898
88	0x09	0.20322801
89	0x0a	0.2258089
90	0x02	0.04516178
91	0x0a	0.2258089
92	0xfb	-0.11290445
93	0xff	-0.02258089
94	0x03	0.06774267
95	0xfa	-0.13548534
96	0xf9	-0.15806623
97	0x01	0.02258089
98	0x0a	0.2258089
99	0x07	0.15806623
100	0x09	0.20322801
101	0x0a	0.2258089
102	0xfd	-0.06774267
103	0xf8	-0.18064712
104	0x00	0.0
105	0xf3	-0.29355156
106	0x01	0.02258089
107	0xf9	-0.15806623
108	0xfd	-0.06774267
109	0x03	0.06774267
110	0xfd	-0.06774267
111	0x05	0.11290445
112	0xf4	-0.27097067
113	0xfb	-0.11290445
114	0xeb	-0.4741987
115	0x06	0.13548534
116	0x04	0.09032356
117	0xed	-0.42903692
118	0xff	-0.02258089
119	0x09	0.20322801
120	0xfa	-0.13548534
121	0x01	0.02258089
122	0x05	0.11290445
123	0x04	0.09032356
124	0xf9	-0.15806623
125	0x09	0.20322801
126	0x01	0.02258089
127	0x01	0.02258089
128	0x00	0.0
129	0xfa	-0.13548534
130	0xf7	-0.20322801
131	0xe3	-0.65484583
132	0x08	0.18064712
133	0xf3	-0.29355156
134	0x09	0.20322801
135	0xf5	-0.2483898
136	0x08	0.18064712
137	0xf4	-0.27097067
138	0x09	0.20322801
139	0xf6	-0.2258089
140	0x08	0.18064712
141	0xf7	-0.20322801
142	0x02	0.04516178
143	0xfc	-0.09032356
144	0x12	0.40645602
145	0xf6	-0.2258089
146	0x08	0.18064712
147	0x04	0.09032356
148	0x07	0.15806623
149	0xf4	-0.27097067
150	0xfa	-0.13548534
151	0x06	0.13548534
152	0x09	0.20322801
153	0xf7	-0.20322801
154	0xfb	-0.11290445
155	0xf8	-0.18064712
156	0xfd	-0.06774267
157	0xfc	-0.09032356
158	0x03	0.06774267
159	0xf7	-0.20322801
160	0xf9	-0.15806623
161	0xfe	-0.04516178
162	0x09	0.20322801
163	0xf8	-0.18064712
164	0x02	0.04516178
165	0xf7	-0.20322801
166	0xfa	-0.13548534
167	0x13	0.42903692
168	0xfa	-0.13548534
169	0xf7	-0.20322801
170	0x05	0.11290445
171	0xfe	-0.04516178
172	0x03	0.06774267
173	0x04	0.09032356
174	0xfc	-0.09032356
175	0xf8	-0.18064712
176	0x05	0.11290445
177	0x02	0.04516178
178	0x02	0.04516178
179	0xfa	-0.13548534
180	0xfb	-0.11290445
181	0xeb	-0.4741987
182	0x02	0.04516178
183	0x0b	0.2483898
184	0xff	-0.02258089
185	0x03	0.06774267
186	0x00	0.0
187	0x02	0.04516178
188	0x09	0.20322801
189	0xf8	-0.18064712
190	0x04	0.09032356
191	0x02	0.04516178
192	0xea	-0.4967796
193	0x07	0.15806623
194	0x08	0.18064712
195	0xf0	-0.36129424
196	0x02	0.04516178
197	0xfd	-0.06774267
198	0x01	0.02258089
199	0xfc	-0.09032356
200	0xfa	-0.13548534
201	0x0a	0.2258089
202	0xfd	-0.06774267
203	0xf6	-0.2258089
204	0xfc	-0.09032356
205	0xf6	-0.2258089
206	0x04	0.09032356
207	0xfd	-0.06774267
208	0xf8	-0.18064712
209	0x06	0.13548534
210	0xf6	-0.2258089
211	0x01	0.02258089
212	0x04	0.09032356
213	0xf9	-0.15806623
214	0x11	0.38387513
215	0xfe	-0.04516178
216	0x06	0.13548534
217	0x04	0.09032356
218	0x03	0.06774267
219	0x05	0.11290445
220	0xfe	-0.04516178
221	0xfa	-0.13548534
222	0xfc	-0.09032356
223	0x05	0.11290445
224	0xfe	-0.04516178
225	0x02	0.04516178
226	0xea	-0.4967796
227	0x0b	0.2483898
228	0xf6	-0.2258089
229	0xf9	-0.15806623
230	0x08	0.18064712
231	0xfe	-0.04516178
232	0x09	0.20322801
233	0x08	0.18064712
234	0xfe	-0.04516178
235	0x02	0.04516178
236	0xf5	-0.2483898
237	0xee	-0.40645602
238	0x06	0.13548534
239	0xf7	-0.20322801
240	0xfe	-0.04516178
241	0xf8	-0.18064712
242	0xfd	-0.06774267
243	0xfe	-0.04516178
244	0x09	0.20322801
245	0xe6	-0.5871031
246	0x07	0.15806623
247	0x02	0.04516178
248	0x00	0.0
249	0xff	-0.02258089
250	0x02	0.04516178
251	0xff	-0.02258089
252	0xf8	-0.18064712
253	0xfa	-0.13548534
254	0x03	0.06774267
255	0xfd	-0.06774267

model_count_insects_final_2/FC_3/MatMul i1 [1, 32] scale=0.0051043592 zero_point=0
0	0x91	-0.5665839
1	0x01	0.0051043592
2	0x1c	0.14292206
3	0x04	0.020417437
4	0x06	0.030626155
5	0x23	0.17865257
6	0xee	-0.09187847
7	0x21	0.16844386
8	0x09	0.045939233
9	0xf1	-0.076565385
10	0xdd	-0.17865257
11	0x0e	0.07146103
12	0xb2	-0.39814
13	0xbc	-0.34709644
14	0xdf	-0.16844386
15	0x03	0.015313078
16	0x35	0.27053103
17	0x20	0.1633395
18	0x29	0.20927873
19	0xa9	-0.44407925
20	0x13	0.09698282
21	0x13	0.09698282
22	0xd2	-0.23480052
23	0x0e	0.07146103
24	0x7f	0.6482536
25	0xef	-0.08677411
26	0x26	0.19396564
27	0x38	0.28584412
28	0x00	0.0
29	0xee	-0.09187847
30	0x3a	0.29605284
31	0x11	0.08677411
